Week 6/firebase_ml_model.tflite (tflite, 408808 bytes, 4 tensors)

sequential/dense/BiasAdd/ReadVariableOp f4 [128]
0	0xbdc6b546	-0.09702544
1	0xbbddf9d0	-0.0067741647
2	0x3d7265b0	0.059179008
3	0xbd542c11	-0.051799837
4	0x39a32897	0.00031120025
5	0xbd5df8d0	-0.054192364
6	0x3dc7e92d	0.097612716
7	0x3dcfc335	0.10144655
8	0x3d5cb619	0.0538846
9	0x3e199361	0.14997627
10	0x3d5a0c75	0.053234536
11	0x3ceebb8b	0.029142162
12	0xbc4a353b	-0.012341793
13	0xb9b0c5d6	-0.00033716735
14	0x3e052f69	0.13006367
15	0x3e049616	0.12947878
16	0x3b062cc6	0.0020473464
17	0xba139238	-0.0005629393
18	0x3cb509f9	0.022099482
19	0x3debddd9	0.115169235
20	0x3c9bbbfb	0.019010535
21	0x3d5b9e6f	0.05361789
22	0x3cecae23	0.028891629
23	0x3cbdf6be	0.023188945
24	0xbd16a449	-0.03677777
25	0x3db9636f	0.090521686
26	0x3c99153b	0.018686881
27	0x3bdb4ea6	0.0066927252
28	0x3bd5a2d0	0.006519653
29	0x3d01bc04	0.031673446
30	0x3d2fe87b	0.04294632
31	0xbc6017bc	-0.013677534
32	0xbc741625	-0.014897858
33	0x3beaa452	0.007160702
34	0x3d3e6854	0.046486214
35	0xbdf0d81f	-0.11759972
36	0x3c642f33	0.013927269
37	0x3db1e855	0.08686892
38	0xbc2de47a	-0.010613555
39	0x3d842570	0.06452453
40	0xbbd73dd3	-0.0065686493
41	0x3b94eead	0.004545054
42	0x3d6a79ce	0.05724507
43	0x3deb4936	0.11488573
44	0xbce598e9	-0.028027015
45	0xbcf58436	-0.02997027
46	0xbced5a42	-0.028973702
47	0xbc6b2cda	-0.014353955
48	0x3d2dcfb6	0.042434417
49	0x3d96e5bc	0.07368037
50	0x3cbacc43	0.022802478
51	0x3d44314b	0.047898572
52	0x3dbeb5f6	0.0931205
53	0x3cefecab	0.029287657
54	0x3e06981f	0.13143967
55	0x3d8fef06	0.07028012
56	0xbb062334	-0.002046776
57	0x3d8f5e4d	0.07000408
58	0xbb4c6ea0	-0.0031193867
59	0x3c77472a	0.01509265
60	0xbcd9d18e	-0.026589181
61	0x3e14dc61	0.14537193
62	0x3ca37b57	0.019956274
63	0xbda215ba	-0.079143
64	0x3e0baf8d	0.13641186
65	0xbd60914f	-0.054826077
66	0x3d1dc834	0.038521007
67	0xbdc21c24	-0.09478024
68	0x3de560ac	0.11200079
69	0x3d3bc85a	0.045845367
70	0x3d71a8f3	0.058999013
71	0x3c50a0aa	0.012733618
72	0xbd6c7c80	-0.05773592
73	0x3d09dfad	0.03366058
74	0xbd29b0d5	-0.041428406
75	0xbc401441	-0.011723579
76	0x3dbfa364	0.09357336
77	0x3c47678f	0.012170686
78	0xbc075a5f	-0.008261292
79	0xbc1c30ff	-0.009533166
80	0x3d7d3848	0.061821252
81	0x3d5aff28	0.053465992
82	0x3dc1b5a5	0.09458474
83	0x3dbdb393	0.09262767
84	0xbbbfd571	-0.0058543016
85	0x3da2fe39	0.079586454
86	0xbd83f9f4	-0.06444159
87	0xbd1fb562	-0.03899134
88	0x3d8dfab8	0.069325864
89	0xbbb312b7	-0.0054648775
90	0x3dcd60fa	0.100282624
91	0x3bc9720a	0.0061476277
92	0x3d54a22a	0.051912464
93	0xbc9db89f	-0.019253073
94	0x3ba53008	0.005041126
95	0x3dbd2999	0.0923645
96	0xbc52de61	-0.012870402
97	0x3da9f7cb	0.08299216
98	0xbe19480d	-0.14968891
99	0x3decfff0	0.11572254
100	0x3daf2d14	0.0855352
101	0xbd021582	-0.031758793
102	0x3e04e4b9	0.12977876
103	0x3d4834a8	0.048878342
104	0x3caa6911	0.020802053
105	0xbd95289c	-0.07283136
106	0x3d245d1f	0.04012787
107	0xbc5a1531	-0.0133107165
108	0x3ccd2d94	0.025046147
109	0x3c5d8f5f	0.013522952
110	0x3d2bee8e	0.04197555
111	0x3df73793	0.12071147
112	0x3cc29d47	0.023756636
113	0x3c4b5966	0.012411451
114	0x3c69c4b6	0.014268091
115	0xbca9adcb	-0.020712754
116	0xbcc3bc69	-0.023893552
117	0x3dffa816	0.12483232
118	0xbd6dbbc1	-0.058040384
119	0x3d31b77a	0.043387868
120	0x3dd3a2e2	0.10333802
121	0xbdafad29	-0.085779496
122	0x3dcb880d	0.09938059
123	0xbd53a33c	-0.051669344
124	0x3c988b39	0.018621074
125	0x3d79a9d2	0.06095297
126	0xbccc1b71	-0.024915429
127	0xbc9585da	-0.018252302

sequential/dense_1/BiasAdd/ReadVariableOp f4 [10]
0	0xbdf46d8b	-0.11934956
1	0x3d1d7cfd	0.038449276
2	0x3ce98b13	0.028508699
3	0xbce70351	-0.028199824
4	0x3d850e44	0.064968616
5	0x3ddbccbc	0.10732409
6	0xbdb33f0f	-0.08752262
7	0xbc2d3d15	-0.010573645
8	0x3c898b86	0.016790163
9	0xbd2a3a54	-0.041559532

sequential/dense/MatMul f4 [128, 784]
0	0x3d40f062	0.047104247
1	0xbd4acaaa	-0.04950968
2	0x3d69886a	0.05701486
3	0x3c8be6ec	0.017077886
4	0x3c07b4f0	0.008282885
5	0x3d851cd9	0.06499643
6	0xbd4f1288	-0.050554782
7	0xbd81e507	-0.063425116
8	0xbd1b037f	-0.03784513
9	0x3d094d6e	0.03352111
10	0xbd9ab64a	-0.075543
11	0xbd6f3d66	-0.058408163
12	0x3ca3e59b	0.020006945
13	0x3dc09af9	0.09404559
14	0xbccf5b54	-0.025312103
15	0x3cc0cb89	0.023534553
16	0x3d742b2e	0.05961149
17	0xbc942ac8	-0.018086806
18	0xbb534980	-0.0032239854
19	0x3a109080	0.0005514696
20	0x3d5d7576	0.054067098
21	0xbd4ee9b6	-0.050515853
22	0x3ce9469c	0.028476052
23	0xbd9f5292	-0.07779421
24	0x3d09e54a	0.033665933
25	0x3bf08f50	0.007341303
26	0x3d9b1a8b	0.07573422
27	0x3aed5a40	0.0018108562
28	0xbd803688	-0.06260401
29	0x3c8add70	0.016951293
30	0xbd09b46b	-0.033619326
31	0x3c14a540	0.009072602
32	0xbd587c9e	-0.05285322
33	0x3d3635e6	0.044484995
34	0x3d6d619a	0.05795441
35	0x3d75b128	0.059983402
36	0xbd30af01	-0.043135647
37	0xbd49ee36	-0.04929944
38	0x3d28dfd4	0.041229084
39	0x3dc91f88	0.09820467
40	0x3df99e96	0.12188451
41	0x3d14927c	0.03627251
42	0x3d58a37f	0.052890297
43	0x3dbc4981	0.09193707
44	0x3d05b726	0.032645367
45	0xbc6514f0	-0.013982043
46	0xbbe2342b	-0.0069031916
47	0x3d95f81e	0.07322715
48	0x3db146b8	0.08656067
49	0x3d8d839f	0.0690987
50	0xbccacca6	-0.024755787
51	0x3d845bbf	0.06462812
52	0x3cef60f8	0.029221043
53	0xbd10fa6a	-0.035395063
54	0x3d95777b	0.0729818
55	0x3aff4200	0.0019474626
56	0xbd24a331	-0.040194694
57	0xbcc6b584	-0.024256475
58	0xbd8c42f8	-0.06848711
59	0x3cbe9f9b	0.023269465
60	0xbd34cd13	-0.044140887
61	0x3c36b3f8	0.011151306
62	0xbd707a2b	-0.05871026
63	0x3d61f796	0.055167757
64	0xbd330460	-0.043705344
65	0x3e331732	0.17489317
66	0x3e3480e2	0.1762729
67	0x3d8a342c	0.06748232
68	0x3e524c12	0.20536831
69	0x3b82691c	0.003979815
70	0xbd21fc2b	-0.039547127
71	0x3da651c6	0.08121066
72	0xbd7d8273	-0.061891984
73	0xbe0ae0ef	-0.13562368
74	0xbc964dfe	-0.018347736
75	0xbdaeeb87	-0.08541017
76	0x3cefe735	0.029285053
77	0xbd68b4f0	-0.05681318
78	0xbd3e771e	-0.046500318
79	0xbce2b94f	-0.027676253
80	0x3b4324b2	0.002977651
81	0x3c8f113a	0.017464269
82	0x3ce73924	0.028225489
83	0x3bf04500	0.007332444
84	0x3b897fc0	0.004196137
85	0xbd9c2b3c	-0.07625434
86	0x3d99d0f5	0.075105585
87	0xbd081e1b	-0.033231836
88	0x3ac644f9	0.0015126757
89	0x3c7f090b	0.015566121
90	0x3d998ba9	0.07497341
91	0x3d2e5f10	0.042571127
92	0x3e6c6ba7	0.23087941
93	0x3dc6023c	0.09668395
94	0x3e42444b	0.18971364
95	0x3df3f8bb	0.11912676
96	0x3d9a3f6e	0.075316295
97	0x3e70081e	0.23440596
98	0xbaea5147	-0.0017877006
99	0xbdf30826	-0.118667886
100	0xbdc9b109	-0.0984822
101	0xbc3c8538	-0.011506371
102	0xbe1145b5	-0.14186747
103	0xbe08f2d3	-0.1337388
104	0xbe370b88	-0.17875493
105	0xbd968bec	-0.07350907
106	0xbc79ecf2	-0.015254246
107	0xbd6b0fe0	-0.057388186
108	0x3d8a5a17	0.067554645
109	0xbbaee847	-0.005337748
110	0x3d94c9fc	0.07265088
111	0x3d62a072	0.055328794
112	0x3c967a1c	0.018368773
113	0xbce855c3	-0.028361207
114	0x3d34130c	0.043963477
115	0x3ca30a03	0.019902235
116	0x3d8db1f7	0.0691871
117	0xbb074e89	-0.0020646176
118	0x3d97dc6f	0.07415091
119	0x3d09bca9	0.033627186
120	0x3e228764	0.1587196
121	0x3da6d452	0.08145966
122	0x3d70ce22	0.058790334
123	0x3d8d97cd	0.06913719
124	0x3dd0b074	0.10189906
125	0x3ce2f38e	0.027704027
126	0x3d9fc087	0.078003936
127	0x3db608bb	0.08888384
128	0xbde1813e	-0.11010979
129	0xbd37ef27	-0.044905808
130	0xbe4a1e6b	-0.19738166
131	0xbe3b7204	-0.18305212
132	0xbce58396	-0.028016847
133	0xbdb589ff	-0.08864211
134	0xbda0c772	-0.07850541
135	0xbc71d7e4	-0.014760945
136	0xbe01e54d	-0.12685128
137	0xbd011293	-0.031511854
138	0x3e0adcb8	0.1356076
139	0x3d3f3d1d	0.04668914
140	0xbd17452c	-0.0369312
141	0xbd82727a	-0.06369491
142	0x3d948193	0.07251277
143	0x3dc1825f	0.094486944
144	0x3cd386b8	0.025821075
145	0xbd8cc889	-0.068741865
146	0x3c8c255e	0.017107662
147	0xbd5e7568	-0.054311186
148	0x3cf457b2	0.029826973
149	0x3d52504e	0.051346116
150	0x3d4efb8c	0.050532863
151	0x3df89b61	0.12139011
152	0x3d747f8a	0.059691943
153	0x3d445071	0.047928277
154	0x3d5b948d	0.053608466
155	0x3cff1616	0.031138461
156	0xbc62b1fe	-0.013836382
157	0xbcabb7f4	-0.02096174
158	0xbd66bd12	-0.056332655
159	0xbd905ab6	-0.07048552
160	0xbdd9a569	-0.106272526
161	0xbde1e7a5	-0.11030511
162	0xbd9f52c8	-0.07779461
163	0xbe1e5f61	-0.15466072
164	0xbda2b1c6	-0.07944064
165	0x3dda818b	0.106692396
166	0x3dc182a9	0.094487496
167	0x3d9eb668	0.07749635
168	0x3d9e42e9	0.07727606
169	0x3ccfe363	0.025376981
170	0xbdb89a78	-0.090138376
171	0x3e095882	0.1341267
172	0x3a9771a1	0.001155425
173	0xbe4d280a	-0.20034805
174	0xbc9a5ea7	-0.018843962
175	0xbd029d01	-0.03188801
176	0xbd89ce8a	-0.06728847
177	0xbd3e2877	-0.04642531
178	0x3d809281	0.062779434
179	0x3d39afff	0.04533386
180	0x3e0ba33a	0.13636485
181	0x3e558450	0.20851254
182	0x3e730ca7	0.23735295
183	0x3e5c3b3e	0.21506974
184	0x3e20e654	0.15712863
185	0x3dac068e	0.08399688
186	0x3d6b462c	0.057439968
187	0xbcb959dd	-0.022625858
188	0xbe0293b6	-0.1275166
189	0xbe392fba	-0.18084612
190	0xbd9a3241	-0.075291164
191	0xbd03756f	-0.032094415
192	0xbdf4c4c7	-0.11951595
193	0x3ce2cc0e	0.027685191
194	0x3dd47088	0.10373026
195	0x3e242f84	0.16033751
196	0x3c046324	0.008080278
197	0x3e3fd350	0.18732953
198	0xbe135be0	-0.14390516
199	0x3d836adc	0.06416866
200	0xbc50ec02	-0.012751581
201	0xbdc0de19	-0.09417362
202	0xbd210b6a	-0.039317526
203	0xbd86b584	-0.0657759
204	0x3d1ba4bc	0.0379989
205	0x3dd96bae	0.106162414
206	0x3e1bd3b7	0.15217482
207	0x3ddb6c94	0.10714069
208	0x3e45056b	0.19240348
209	0x3e040c61	0.12895347
210	0x3dc2af20	0.09506059
211	0x3e23b2d9	0.15986194
212	0x3e27aa8a	0.16373649
213	0xbcab4faf	-0.02091202
214	0x3db33e41	0.08752108
215	0xbcc01219	-0.02344613
216	0xbdf33ebf	-0.11877202
217	0xbe530b50	-0.20609784
218	0xbda969fd	-0.08272169
219	0xbdde1886	-0.10844521
220	0xbdc473a4	-0.09592369
221	0x3d70d0e6	0.05879297
222	0xbc12a199	-0.008949661
223	0x3e1d541d	0.15364118
224	0x3d36cd6f	0.04462951
225	0x3c93641f	0.017992077
226	0xbc613080	-0.013744473
227	0xbc79499f	-0.015215307
228	0x3d8996a0	0.067181826
229	0xbd4355fa	-0.047689416
230	0xbd89af3d	-0.06722877
231	0x3dbf4485	0.09339241
232	0x3dffd2c9	0.12491376
233	0x3da16b77	0.078818254
234	0x3d5063a4	0.050876275
235	0x3ddd1dac	0.10796675
236	0x3cae625c	0.021287136
237	0x3e0b7937	0.13620459
238	0x3d82d1f6	0.06387703
239	0x3e04d657	0.12972389
240	0x3d34b4b4	0.044117644
241	0x3c61499a	0.013750458
242	0x3dcfe9a7	0.101519875
243	0x3cded922	0.027203146
244	0x3a67c01e	0.00088405784
245	0xbdfdf7ad	-0.12400756
246	0xbd30a56c	-0.04312651
247	0xbe7e3c67	-0.24827729
248	0xbd893390	-0.06699288
249	0xbdeed69e	-0.11662029
250	0x3d8c21e0	0.06842399
251	0xbcafbbd6	-0.021451872
252	0xbcc0a4d1	-0.02351609
253	0xbd277eff	-0.040892597
254	0xbdafba6f	-0.08580481
255	0x3d9e602a	0.077331856

sequential/dense_1/MatMul f4 [10, 128]
0	0x3e7d2e68	0.24724734
1	0x3e258331	0.16163327
2	0xbe894d0b	-0.26816592
3	0x3db02358	0.08600491
4	0x3c746a76	0.01491796
5	0x3e5dd96f	0.21664976
6	0xbe38b50f	-0.18037818
7	0xbe055d67	-0.13023911
8	0x3e1b59a8	0.1517092
9	0xbe4c0178	-0.19922435
10	0x3d10b0d2	0.03532488
11	0x3dc9b2b9	0.09848542
12	0x3e03dfea	0.12878385
13	0xbebe443c	-0.37161434
14	0x3dc6977f	0.09696864
15	0x3dd6a252	0.10480179
16	0x3e638d11	0.22221781
17	0xbe734f50	-0.23760724
18	0x3e1ac073	0.15112476
19	0xbf44e291	-0.7690821
20	0xbe645aaf	-0.22300218
21	0x3ea2f254	0.31825507
22	0xbf0f6724	-0.56016755
23	0xbdfd5d62	-0.12371327
24	0x3ea998aa	0.33124286
25	0x3e202f4e	0.15643045
26	0xbe5002f9	-0.20313634
27	0x3df64f47	0.1202684
28	0xbd807581	-0.06272412
29	0x3e2b4f72	0.16729525
30	0x3e1f4b1d	0.15555997
31	0x3df89877	0.12138455
32	0x3e408eea	0.18804517
33	0x3d89f617	0.06736391
34	0x3e0e72d8	0.13910997
35	0x3e6eb940	0.23312855
36	0x3d8d6115	0.069032826
37	0xbe8f797e	-0.2802238
38	0x3e89c6a5	0.26909366
39	0xbd098b7c	-0.03358029
40	0x3cf7e450	0.030260235
41	0x3d8eae64	0.06966856
42	0x3e516bad	0.20451231
43	0xbe914431	-0.28372338
44	0x3e6955ed	0.22786684
45	0xbca16eed	-0.019706214
46	0xbe8d2d79	-0.27573755
47	0x3e04c6a8	0.12966406
48	0xbe80dcbc	-0.25168407
49	0xbea652fb	-0.32485184
50	0xbf2b4280	-0.66898346
51	0xbe8d5535	-0.2760407
52	0xbe11cd26	-0.14238414
53	0xbe632361	-0.22181465
54	0xbd83e426	-0.0644
55	0xbe55b2f6	-0.2086905
56	0x3d1640b5	0.036682803
57	0xbe8f3101	-0.27967075
58	0x3e53fcc3	0.2070189
59	0x3e11bb87	0.14231692
60	0xbd77c60c	-0.060491607
61	0xbe2212d2	-0.15827492
62	0x3c3b290d	0.0114233615
63	0x3df0f21e	0.1176493
64	0xbca0b1e7	-0.01961608
65	0x3dce6bd4	0.1007916
66	0x3d109a24	0.03530325
67	0x3e7e9ed0	0.2486527
68	0xbe5c6c69	-0.2152573
69	0x3d60d69a	0.05489216
70	0xbd61003f	-0.054931875
71	0xbd7379e9	-0.059442434
72	0x3c5f2326	0.01361922
73	0xbe3a1676	-0.1817263
74	0xbdf99d4c	-0.12188205
75	0x3e0687f2	0.13137797
76	0x3dc01928	0.09379798
77	0x3d8cf7f2	0.06883229
78	0x3e64fdb8	0.22362411
79	0xbccfdf45	-0.025375018
80	0x3e6a5fb4	0.2288807
81	0xbece48de	-0.40289968
82	0x3e22dfa6	0.15905628
83	0x3d907c33	0.07054939
84	0x3e942ef0	0.2894206
85	0xbd51fc00	-0.051265717
86	0xbe0e6436	-0.13905415
87	0x3df43f28	0.119261086
88	0xbec558d6	-0.3854434
89	0xbe1ffadc	-0.15623039
90	0xbe73d59c	-0.23811954
91	0x3e3c0357	0.18360649
92	0xbd9d11bf	-0.076694004
93	0x3e0caae1	0.1373706
94	0x3e78f078	0.24310482
95	0xbe83848e	-0.2568707
96	0xbe9bf0ff	-0.30457303
97	0xbd826b31	-0.063681014
98	0x3e5a2b66	0.21305618
99	0x3d14c69f	0.036322232
100	0x3e5d399d	0.21604009
101	0x3c32e668	0.010919191
102	0xbe2d150d	-0.16902561
103	0xbe645881	-0.22299387
104	0xbe914952	-0.2837625
105	0x3e334d71	0.1751001
106	0x3db99fc4	0.09063676
107	0x3e33ba4a	0.17551532
108	0xbed97edc	-0.424796
109	0xbed3d1e7	-0.4137108
110	0x3d83f32c	0.06442866
111	0xbded855b	-0.11597701
112	0x3da91b0e	0.082571134
113	0xbcbfc6b2	-0.023410175
114	0xbe55113a	-0.20807353
115	0x3e39c22c	0.18140477
116	0x3e249fbc	0.16076559
117	0xbeddaa10	-0.4329381
118	0x3e4635dd	0.19356485
119	0xbf0a4bef	-0.54022115
120	0xbe9b869b	-0.30376133
121	0xbcf30040	-0.029663205
122	0xbda6a01d	-0.08136008
123	0xbdc878bc	-0.09788653
124	0xbd06bbf7	-0.0328941
125	0xbef4afe2	-0.47790438
126	0x3e48cdd1	0.19609763
127	0x3e00ee68	0.12590945
128	0x3d1cce7a	0.03828285
129	0xbe9b38c2	-0.3031674
130	0xbe185414	-0.14875823
131	0xbeba34c6	-0.36368388
132	0x3e20b061	0.15692283
133	0xbe450279	-0.19239224
134	0xbe5ddb40	-0.21665668
135	0x3e6cad6c	0.2311303
136	0xbe135518	-0.1438793
137	0x3eaafb6d	0.33394948
138	0x3e533478	0.20625484
139	0x3d8d6ebc	0.069058865
140	0x3ea19e20	0.31565952
141	0x3e6345c8	0.22194588
142	0xbe7e229f	-0.24817894
143	0x3eae358f	0.34025237
144	0x3dec9411	0.11551679
145	0xbeea1bfb	-0.45724472
146	0xbe0535a1	-0.13008739
147	0x3e21dfc0	0.1580801
148	0x3e2c0253	0.16797762
149	0xbe1ddc55	-0.15416081
150	0x3e987e63	0.29783925
151	0xbd79cc5b	-0.060985904
152	0x3e83ea39	0.25764635
153	0x3d867a44	0.06566289
154	0x3e7599f8	0.23984516
155	0x3d2a29ab	0.041543644
156	0xbc3408af	-0.010988398
157	0xbe35ba7d	-0.17746921
158	0x3ee0c008	0.43896508
159	0xbc275ae3	-0.01021454
160	0xbe41361f	-0.18868302
161	0x3e943edf	0.28954217
162	0xbe4d7e33	-0.20067672
163	0xbd8be5cf	-0.06830942
164	0xbe808309	-0.25099972
165	0xba985722	-0.0011622647
166	0xbea0810d	-0.31348458
167	0xbcdd543e	-0.027017709
168	0x3cd94125	0.026520321
169	0x3f0d7348	0.5525403
170	0x3e2e5939	0.17026223
171	0xbdebc9d5	-0.11513106
172	0x3dfb6cd7	0.12276619
173	0xbeb74e91	-0.3580213
174	0xbec2f3c6	-0.3807661
175	0xbe613a1a	-0.2199482
176	0x3e042da6	0.12908038
177	0x3ee1f611	0.44133046
178	0x3c73003c	0.014831599
179	0x3e11c151	0.142339
180	0x3d553d06	0.05206015
181	0xbe77396f	-0.24143003
182	0x3ddb93dc	0.10721561
183	0xbd8df0a4	-0.06930664
184	0x3e19a530	0.1500442
185	0x3d895892	0.067063466
186	0x3e1b41e6	0.15161857
187	0xbe4cd41e	-0.20002791
188	0x3e0f32b2	0.13984182
189	0xbe9a6f33	-0.30162963
190	0x3e8eedd9	0.27915838
191	0x3d731440	0.059345484
192	0x3e594b41	0.21220113
193	0xbd605727	-0.054770615
194	0xbeb4ea16	-0.35334843
195	0x3e86c7c2	0.26324278
196	0x3ebd317c	0.36951816
197	0xbea6fdf0	-0.32615614
198	0x3dbad188	0.09121996
199	0x3e04cd93	0.12969045
200	0x3e418d48	0.18901551
201	0x3d8d47d9	0.068984695
202	0xbeabc06a	-0.33545238
203	0xbe39450c	-0.18092746
204	0x3e45f3d5	0.19331296
205	0xbead1dc9	-0.33811787
206	0xbe6ae7a2	-0.22939923
207	0x3df546fd	0.119764306
208	0x3e5b053c	0.21388716
209	0x3e239254	0.15973788
210	0xbed9869c	-0.4248551
211	0xbec52f4d	-0.3851265
212	0xbe0ecbc0	-0.13944912
213	0x3cf59cb4	0.029981948
214	0xbe501c3a	-0.20323268
215	0xbe289335	-0.16462405
216	0x3ed0d9d2	0.40791184
217	0xbc8226c8	-0.015887633
218	0xbe50fbba	-0.20408526
219	0xbe89e814	-0.26934874
220	0xbe4b370c	-0.19845217
221	0xbeb14fb5	-0.34631124
222	0xbcfa4cbf	-0.030554174
223	0x3e213705	0.15743645
224	0xbdd0ca43	-0.10194828
225	0x3c7a4ee1	0.015277595
226	0x3e3e0fd4	0.18560725
227	0x3e6f92c7	0.23395835
228	0x3db4da82	0.088307396
229	0x3d1f5df8	0.038907975
230	0x3d56d649	0.052450452
231	0x3e5dd12e	0.21661827
232	0xbeaf859c	-0.34281623
233	0x3aec4a38	0.001802749
234	0xbd963500	-0.07334328
235	0xbe073548	-0.13203919
236	0xbc897001	-0.01677704
237	0xbe3143a5	-0.1731096
238	0xbe3b45a5	-0.18288286
239	0xbd9f3284	-0.07773307
240	0xbd1d30a3	-0.03837646
241	0x3e33b06a	0.17547765
242	0xbd96e659	-0.07368154
243	0xbedfb949	-0.4369605
244	0xbf14ad02	-0.5807649
245	0x3e288f84	0.16460997
246	0x3ecb52fb	0.39711747
247	0xbc71a3e1	-0.014748544
248	0xbe5cddbd	-0.21568961
249	0xbd610298	-0.054934114
250	0xbe9aadc2	-0.30210692
251	0xbd580163	-0.052735697
252	0xbe949a58	-0.29024005
253	0x3ea22aa4	0.31673157
254	0x3ddbb194	0.1072723
255	0xbeb73473	-0.35782203
